modular/modelo_entrenado.pth (torch, 305294 bytes, 13 tensors)

conv1.bias f4 [128]
00000000: 9c47 98bc a0ca 4b3d b240 503d 5724 883c
00000010: ea90 f7bd 1cb1 bb3b 60ba 063e 4c94 d63d
00000020: 6086 8b3c d6be 413d a1c4 96bc e691 b23b
00000030: 0be6 b1bb de71 c3bc 52e5 7a3c 4e1d 423d
00000040: f212 b1bd b135 aabc 4c0f 4e3d b494 ad3d
00000050: 64b4 31bd 2707 dd3c a5f3 87bd 082d 3a3d
00000060: cbc8 b8bd 435d bb3e c810 4fbd 8d83 bc3d
00000070: 3416 edbd f8e6 9f3c 2b01 4b3d bedc a43c
00000080: 1a7a 1ebd 8351 5d3c 6a5f 1c3d 9e11 3b3c
00000090: 3f07 0c3b 49ae 66bc db33 bcbc 298d bd3b
000000a0: 3baf 983d 41cd 213e 54c5 c43c bb5b c33c
000000b0: 8462 0e3e 5314 7dbd 9707 4e3d b1a2 873c
000000c0: b8ae 583d 68d3 d23a b1fc 333e 68a4 a63c
000000d0: cdef 24bc a1fa 5bbc 33b0 0abe fa6b ed3c
000000e0: ef32 e43c c4cf 293d 9477 2ebc ee9b bb3d
000000f0: 3b9d e33b bde5 7a3d b2ba 41bc b27e 053d
00000100: 7043 0abd fa9d 7fbe 9d7c 11be 9aa9 833d
00000110: 61ed f8bb 75c5 acbd dae0 c63c 4490 f83c
00000120: c6cc c0bd 1e00 a33b a312 723d 8813 953c
00000130: 9e03 503c 3590 4bbd 5e61 4a3d 88aa 2d3d
00000140: 7394 06bd 0b5f 3d3e d4a4 013e 02a6 c1bc
00000150: c0eb da3d fe3d 0e3e 31ee 503d 7900 1f3d
00000160: 064b ac3c 5e2d 0f3e 21a9 a4bd cee4 a3bd
00000170: 3ebc a63d 3c3d 603d 1070 a23c 14ab 1f3e
00000180: 93aa 7abd 811c b2bd 347f 413e 2baa f1bd
00000190: d32c 843d fa78 173d fc08 adbd 5b88 163d
000001a0: 8b0f 353d 343f 7b3c ccb3 183d 47e8 213d
000001b0: 8d2b 4c3c 4b25 133d e6ba 843d c3b6 c03c
000001c0: ac7a 913c bd4f c83c 84bf 76bc beb3 f7bb
000001d0: b901 d0bc 7e2c d43d 0060 57bd 51b5 23bd
000001e0: 2b8f 8cbd 0fcb c7bc 6044 133e 219b 723c
000001f0: 70cf a8bd 0686 53be 1c5b 5f3d 51b0 0c3e
-0.018588834 0.049753785 0.05084295 0.01661889 -0.12088187 0.0057279 0.13157034 0.10477504
0.017031848 0.047301136 -0.018404307 0.0054495214 -0.0054290346 -0.023858007 0.015313463 0.04739123
-0.08646192 -0.020777555 0.050307557 0.084756285 -0.043384925 0.02698095 -0.066382684 0.0454531
-0.09022673 0.3659459 -0.050553113 0.09204779 -0.115765005 0.019519314 0.04956166 0.02012479
-0.038690664 0.013508203 0.03817693 0.0114177745 0.0021366624 -0.014079639 -0.022973945 0.00578465
0.074552976 0.15800954 0.024019875 0.023847451 0.13904768 -0.06178696 0.050300207 0.01655707
0.052901 0.0016084732 0.17576863 0.020342067 -0.010066939 -0.013426454 -0.13543777 0.028982151
0.027856318 0.041457906 -0.010648627 0.091606006 0.0069462336 0.06125425 -0.011824297 0.03259153
-0.03375572 -0.24962607 -0.14207692 0.06428833 -0.007596657 -0.084360994 0.02427714 0.030342229
-0.094140574 0.004974379 0.059099805 0.01819779 0.012696175 -0.049698073 0.049409263 0.04239896
-0.032856416 0.18493287 0.12660533 -0.023638729 0.10689497 0.13890836 0.051008407 0.03881881
0.021031868 0.1398215 -0.08040071 -0.080026254 0.08141373 0.054745898 0.019828826 0.15592605
-0.06119783 -0.08696843 0.1889618 -0.11800035 0.06453862 0.036980607 -0.08448979 0.036751132
0.044204276 0.015334893 0.037280843 0.039528158 0.012461555 0.035924237 0.064809605 0.023524648
0.01775869 0.024452085 -0.015060309 -0.0075592687 -0.025391446 0.10360049 -0.052581787 -0.03996784
-0.068632446 -0.024388818 0.14381552 0.014807493 -0.082426906 -0.20656595 0.054530248 0.13739134

conv1.lin.weight f4 [128, 4]
00000000: 08d0 0bbe 2e19 2980 ec3c 40bc 035b 3a3e
00000010: 184b 78bd c687 823c d856 03be 8578 b2bd
00000020: 50d3 ba3b eb08 51bd f06e afbe 2dbb 1f3f
00000030: 03b7 31be bc28 253f 638c 6c3e ed3e 86bb
00000040: b04a 233e 2d98 6ebd 0eb1 1e3d 084f 09bf
00000050: ac2f 6c3c cf9a 753e 7fd5 ab3d e2f8 293e
00000060: 43fd 63bd 2dfb 36be c18e 163e 8600 163f
00000070: 84b4 60bd 357b 4fbe eaa9 543e 8123 ff3e
00000080: 66a4 6fbe b9bc 0600 2722 fdbd b2f9 b03e
00000090: bc1e 85bd 7a06 8e3d 4ce9 6fbe 4c2b 6dbd
000000a0: 24c2 47be daaa 3580 c564 1fbb fc73 cc3e
000000b0: 4e78 803b 592b 683e 860c a73d 14e1 533e
000000c0: 3014 00be c28b 4500 5b07 303d cb88 91be
000000d0: 92cc 40be 405a bd00 e272 133e 7b7d a43d
000000e0: 53e9 a4be 209a 2180 8447 5fbe 9566 4fbc
000000f0: 4ba8 073d 775e 2b3e f546 32be 5637 173e
00000100: 2c6c 563d d1f1 a1bd fa33 0a3d 42e3 cbbe
00000110: 1994 86be d69b 0200 8262 debc 259a a33e
00000120: 4526 4abd b65d 0400 636f 1cbe abe2 3cbd
00000130: dacb 98bc 8ce6 303e 7945 2c3e 39b0 a0be
00000140: 8ca6 0b3e 4f49 5c3e aec8 263e 1e71 72be
00000150: b5ca f8bd 4adf 0880 b882 2d3e 7811 5fbe
00000160: 641d a93d 655b 5b3e 1667 1b3d 9383 12be
00000170: d426 053d f29d cabd 60e5 f7be bfd0 84be
00000180: b43d ce3d b6fa 003e 90eb b53d 4f22 063e
00000190: b2c2 95bd 98ce 663d 80a8 d53e a64d 67be
000001a0: 2c40 ab3d 8028 48be 0660 253e f009 42be
000001b0: 1642 783d 49bb e73d 88d0 11bd 83c6 803d
000001c0: 3358 253d 4a5b 1c3e 4251 093e 23e6 17be
000001d0: 836d c93c 1cc0 b7bd 1839 8abe f3fd 143f
000001e0: b737 22bd 3db8 1d3d edda 53be 938b 06bc
000001f0: fcdf afbd b649 1480 95e7 67bc e11d 1cbe
00000200: 8ecd d73d bd05 4cbe 5bf9 8b3d bdbf 353e
00000210: 4198 aa3c be4d d039 973b febd 5db8 553f
00000220: bee3 8ebe 0257 3080 448f eabd 6a4f 91bd
00000230: a02d b9bc 5fb3 dd3d 0f7c 23be e4a9 52be
00000240: 019c 59be eea3 1700 3698 5dbd 450c b13d
00000250: a6b4 dd3d 7f4e 5b3a 4c7b 97be 10ca aa3e
00000260: 1aac d73d 3ba6 73be d49e 8a3d 0e9f 29be
00000270: e551 3cbe 77a2 3100 98e2 02bd d2a6 613e
00000280: a4af cbbc 18d0 583e 15a4 f03d 5554 66be
00000290: 4e19 80be 5ffd 1680 3dc0 edbe 1f6a 873e
000002a0: 9ab4 94bc b64f 8a3d 77d2 373e 50a2 023d
000002b0: a14f 57be 5761 1100 4576 0dbd 2d8a a33e
000002c0: ea89 47bd 118e a1be a39c 553e 45ad 033f
000002d0: 1979 c93d bec5 87bd 8aac 743e ed70 acbe
000002e0: 4bb1 e3bd 493b 0a00 5c25 7dbe 3257 eebc
000002f0: 022d 543d c92d 3dbc c942 c3bc 4b07 5abe
00000300: 0a95 823c 39c8 953c e9fd d2be ee6f 64be
00000310: 53a3 163e dcea 4cbd 8b37 273e b2dd 423e
00000320: 1179 91bd 3f11 8abd f2cf 343b e7fd 233f
00000330: 8690 bcbd 3f89 42be ec4d 323e 5211 89be
00000340: 501d bf3c 77ff c7bd d512 01bf a5c5 c53e
00000350: 291d a13d 9691 82bd be7d 0dbf f618 363e
00000360: a481 f73d 584e 4bbe 5659 4fbd 3c83 9e3e
00000370: 0792 e5bd 967a 1100 ff28 e43d 5de4 9abe
00000380: 64de 4abe d238 3200 5825 dabd 579d e03e
00000390: 9d75 28be fbe9 4800 e784 dcbd 253f dd3e
000003a0: e223 1d3e 6a54 283e 8701 273e cb19 313d
000003b0: 0724 a93d b3d8 08be acca 88be 0b8a 8ebd
000003c0: 015c 61be 104b 2a00 526a 51bd 854a 1f3e
000003d0: 9c16 c3be 4f0a 3780 d3ab 7ebe 052b 333e
000003e0: 1f3d 1cbe 6cf9 3580 ab0a 0dbd c892 633d
000003f0: 2e31 b5bb a89b 573d a1ef 1a3d 3d1e df3e
-0.13653576 -3.774288e-39 -0.011733275 0.1819878 -0.06061849 0.015933882 -0.12826097 -0.087143935
0.00570146 -0.051033895 -0.34264326 0.6239498 -0.1735497 0.6451528 0.23100428 -0.004096857
0.1594646 -0.058250595 0.03874307 -0.5363622 0.014415663 0.23984836 0.083903305 0.16598848
-0.05566145 -0.17869253 0.14702894 0.5859455 -0.054859653 -0.20261844 0.20767942 0.49831775
-0.23402557 6.18714e-40 -0.1236003 0.34565502 -0.06500003 0.06934829 -0.2342884 -0.05790262
-0.19507653 -4.928571e-39 -0.0024321538 0.3993224 0.0039205914 0.22672786 0.081566855 0.20691329
-0.12507701 6.386785e-39 0.042975765 -0.28424677 -0.18828037 1.7389284e-38 0.14399293 0.08031746
-0.32209262 -3.085861e-39 -0.21804625 -0.012658735 0.03311948 0.16735254 -0.1740988 0.14767203
0.052349254 -0.07907451 0.033740975 -0.3982182 -0.26284865 2.39574e-40 -0.027146582 0.3195354
-0.049352903 4.00959e-40 -0.15276866 -0.046114605 -0.018651891 0.17275447 0.16823377 -0.31384447
0.13637751 0.2151234 0.1628749 -0.23675963 -0.12148038 -8.14785e-40 0.16944396 -0.21784008
0.08257559 0.21421583 0.037940107 -0.14308004 0.032507733 -0.09893407 -0.48417187 -0.2594051
0.10070363 0.12595639 0.088828206 0.13099025 -0.07312526 0.056349367 0.41730118 -0.22588214
0.08361849 -0.195467 0.16149911 -0.18949103 0.0606099 0.11315019 -0.03559926 0.06287863
0.040367316 0.15269199 0.13409904 -0.14833884 0.024588352 -0.08972189 -0.26996684 0.58199996
-0.039603915 0.03850578 -0.20688982 -0.008211988 -0.085876435 -1.863152e-39 -0.014154335 -0.15245773
0.10537253 -0.19924064 0.0683467 0.17748924 0.020824553 0.00039730774 -0.124137096 0.8348444
-0.27908128 -4.439316e-39 -0.11453107 -0.07095225 -0.022604764 0.10825228 -0.15965293 -0.2057262
-0.21250917 2.171023e-39 -0.054100238 0.08644918 0.108254716 0.0008365884 -0.29586256 0.33357286
0.10530873 -0.2379388 0.06768575 -0.16564581 -0.18390615 4.558221e-39 -0.031954378 0.22036293
-0.024864025 0.21173131 0.11750046 -0.22493108 -0.25019306 -2.111273e-39 -0.4643573 0.2644815
-0.018152524 0.06753485 0.1795138 0.031893075 -0.2102647 1.596122e-39 -0.03453662 0.31941357
-0.04871551 -0.315537 0.20860533 0.51436263 0.09837551 -0.06629513 0.23893943 -0.33679906
-0.111178 9.39622e-40 -0.24721283 -0.029094312 0.051800735 -0.011546561 -0.023835557 -0.21291845
0.015940208 0.01828395 -0.41209343 -0.22308323 0.14710741 -0.050028667 0.16329782 0.19029883
-0.0710317 -0.06741571 0.0027589765 0.640593 -0.09207253 -0.18997668 0.17412537 -0.26771027
0.023329407 -0.09765523 -0.5041936 0.38627353 0.0786689 -0.063754246 -0.5526999 0.1778296
0.12085274 -0.19854105 -0.050622307 0.309595 -0.11209493 1.605179e-39 0.11140632 -0.30252352
-0.19811398 4.612158e-39 -0.10651654 0.4387004 -0.16451116 6.696092e-39 -0.107675366 0.43212238
0.1534572 0.16438451 0.16309176 0.04323749 0.08258825 -0.13363914 -0.26717126 -0.06959923
-0.22007753 3.884018e-39 -0.051126786 0.1555577 -0.38103187 -5.05465e-39 -0.24870233 0.1749688
-0.15257691 -4.956757e-39 -0.034434002 0.055559903 -0.0055295443 0.05263868 0.037826184 0.43577757

conv2.bias f4 [128]
00000000: 0a2f 4dbc 3b97 58bd 0049 22bd 4c80 b63c
00000010: d6b3 733b 1ee3 943c 14ee 64bc 7881 203d
00000020: bb96 0ebe 9947 deba 4758 ad3c 0618 09bb
00000030: 6385 ed3b c5c4 64bc 5b04 973c 3744 99bd
00000040: 25be 73bc ec4c 89a9 0857 74bd 505c 2dbd
00000050: 446d 51bc b364 c4b2 844b 253d b753 2d3d
00000060: eba3 e63d a659 2fbd 4024 bd9e c8d3 6bbd
00000070: 7c6b 8a3d 5ccc fd3c dc54 9d3d f3a6 26bd
00000080: 84f8 543d 3fdd adbc 4b4f 9b3b b16d 5f3b
00000090: d50f c1bb 2898 09bb e118 813d a46c 133c
000000a0: 3e83 753d f2d1 3fbc 1a50 d03d 6b36 5ebd
000000b0: d6ef f53c 6859 203d 8c97 143d ba64 053c
000000c0: 7f06 47bd 6cf5 51bd 22da c83c eb25 203d
000000d0: 2d37 9bae 4ec8 04bd 7d53 4c3d dd5a a5bd
000000e0: 729c 3e3d 26e3 60bd a1ed 313c 203b 59bd
000000f0: 4390 4a3d 30a4 92bc e548 8f3d e0ca 803d
00000100: c76b 77bd db10 02bc 8cfe 273d 6eb0 b83c
00000110: 4562 09bd 9972 6b3d 183c ee3c ec4c b53c
00000120: 4d26 283c 4009 d9bb 5c2d f43a 17d2 bebc
00000130: ffc1 1e3d 9f17 943d 6bb7 7b3d e50d e83c
00000140: 8eec 113d c742 5f3d c558 e5bc c68a 99bd
00000150: 6f3e 50bb 5e93 613c 1cd4 36bd 94e5 22bc
00000160: c0a3 823d e6e3 5fbd 64bf f83c 41d8 1ebe
00000170: 7cb4 f3b4 e968 00bd 1f7e ba3c 8a04 92bd
00000180: 3129 9dbc e8d5 9fbd e982 bd3d 4d14 11bd
00000190: a2ac 8b3c 093a dfb9 596e c73b 4648 3a3c
000001a0: c3fd 6b3d ec19 9f3d 9143 843d 35ed 12bd
000001b0: a2b7 10bb d910 9fbc 630b 24bc 6300 0f3d
000001c0: 6fde 90bd bca2 06bb 7785 56b5 2173 c93d
000001d0: 1b6c a83b d6b5 323d 255f 273d c5e2 90bb
000001e0: 9c10 aa3d 4d61 0bbc fe60 9bb6 35c0 5a3e
000001f0: f732 a8bc 1332 c93c 4551 d33c 5aa3 d1bc
-0.012523422 -0.0528786 -0.0396204 0.022277974 0.0037186048 0.018174704 -0.013972778 0.03918597
-0.13924687 -0.0016958594 0.021160258 -0.002091886 0.007248567 -0.013962929 0.018434694 -0.07483714
-0.014876877 -6.097366e-14 -0.059653312 -0.042324364 -0.012782399 -2.2863196e-08 0.04035522 0.042316165
0.112617336 -0.042810105 -2.0026146e-20 -0.057575017 0.06758782 0.030981235 0.07682201 -0.04068656
0.051994815 -0.021223662 0.004739677 0.003409248 -0.00589178 -0.0020995233 0.063035734 0.00899807
0.059939615 -0.01170777 0.10171528 -0.054251116 0.03002159 0.039147764 0.03627734 0.008141691
-0.04859018 -0.051259443 0.024518076 0.03909866 -7.058385e-11 -0.032417588 0.049884308 -0.080739714
0.046535917 -0.054904126 0.010859878 -0.0530349 0.049453985 -0.017900556 0.069963254 0.06288695
-0.06040552 -0.007938589 0.04101424 0.022545066 -0.033540983 0.057482336 0.02908139 0.022131406
0.010263038 -0.006623417 0.0018629241 -0.023293538 0.038759228 0.07231068 0.061454218 0.028326938
0.035625987 0.054507043 -0.02799643 -0.07497172 -0.0031775495 0.013768045 -0.044635877 -0.009942431
0.06378889 -0.0546607 0.0303647 -0.15512182 -4.5393597e-07 -0.03135005 0.022765217 -0.07129772
-0.01918468 -0.07804471 0.09253485 -0.03541975 0.017050091 -0.00042577114 0.0060861525 0.01136977
0.057615053 0.07768616 0.064582 -0.03587075 -0.002208211 -0.019417213 -0.01001248 0.03491248
-0.07073676 -0.0020543775 -7.991543e-07 0.09836412 0.0051398403 0.043630444 0.04086222 -0.0044215643
0.08303949 -0.008507085 -4.6306513e-06 0.21362384 -0.020532114 0.02456001 0.025795588 -0.025590587

conv2.lin.weight f4 [128, 128]
00000000: 05e7 a8bb 4381 3339 4a17 fc3c 839b 2cbd
00000010: 6b5f d9bc f4d5 11bd a454 41bc 0905 0dbd
00000020: 13c4 1c3c b1fb b73a 6700 063c e2cf fabc
00000030: cd96 11bc 8b7c ddbc ffe7 ca3a 47f0 1d3b
00000040: 99db de36 21c0 57bb 9ac7 5c3a fd5f 19bc
00000050: 38fb 5ebc 3ee4 81ba 7264 aabc af91 ef3b
00000060: 1c09 b3bc 4093 5abd fff7 3dbb 33db 11bc
00000070: 485a 18bc a228 c13c 319a ef3a d4ae 11bb
00000080: 51b8 48bc 6dab 003c 4d89 f8bb ebaf 6e36
00000090: 4300 aabb 28cb aabb 8c64 75bc 4c85 bdbb
000000a0: 67f1 5bbc 5cfd 163d 8541 c4bc ef13 d8bb
000000b0: 0028 7b3c c9cb 44bc 09bd 403b 02d5 2dbc
000000c0: c12f a63b 5038 83bc 9375 863c 1d78 28bd
000000d0: eb3d f13c 56a0 ac3c 8682 a3bc 1a66 81bb
000000e0: 03fc b23b 2dca 293c d09e 3d3c 1001 b93b
000000f0: 4ba8 40bb 2b6a 153c 6536 aabb ab68 36bc
00000100: 1189 84bb 2095 12bc 7e19 75bd 586b fa3b
00000110: 4ecc 2cbd ccb8 463b b220 103a e228 ef39
00000120: d5c0 edbc a788 3fbd 0bd1 353b 7927 b6bb
00000130: 022e 90bc 5edf 1abc e74d 333b 42ec b83a
00000140: 3100 75bd 6295 0f3d b532 823c ac8b 33bb
00000150: 068c 0e32 55ac 063d 1756 14bd d3c0 1e2e
00000160: 13ab 46bc 30a0 c23c c536 1fbd 5d75 55bc
00000170: 6e27 b83c cc0b e9bb f10f cf3c a4e9 df3c
00000180: b5cc ac3c a8f5 c93b 52f6 2a3d 662b 94bc
00000190: a7bf 1e3c d26d dabc 35b0 553c 29a9 89bd
000001a0: 66d4 23bc 8d73 85bc 5a25 b7ba e525 c13c
000001b0: 211a 323c 87ad 49bc a147 c833 ce8a fc3a
000001c0: 98e5 e633 5c89 e1b7 7c1f 97bb 9aea d23c
000001d0: 1bfd 223c e7e4 863c 3024 c7b9 9353 4abc
000001e0: 14e3 ffbb 893c 4abc d5c4 463b c111 b0bc
000001f0: 15c0 58bc 7323 9cbc 7434 8cbd 792e 7939
00000200: a9e1 ad3a 25bc 1aba 74fb fb3d a960 f63d
00000210: 59df 2fbf 5e7e d5bd e0e3 633e 20fb d3bd
00000220: c6f1 983d c94d 8dbb 4b38 573e 0366 cdbd
00000230: b3df 0b3c 9908 c63d 3421 9bbb 354a 263d
00000240: dc89 84be f7be 353e ba49 82bb 65a2 b3bd
00000250: dafd e4be 6d0a 4a3d f7fa 8bbe 1ca9 1cbc
00000260: a573 55be 786e e9bd 21f8 31be f36f 15be
00000270: e1aa 7bbe 780f a53e 2e47 dbbb 4880 2abe
00000280: 2bdf 14bc 605d 353c 3156 2e3e fcf7 cd2d
00000290: a438 8e3d c715 4b3d 7725 e0be cab5 753d
000002a0: 390e e7bd c11e 823d beac 7ebc ff3a 99bc
000002b0: 44e6 6c3d a7e0 a1be 39d6 20bc 80b4 c5be
000002c0: 1e2d 0dbc 8251 48be 5f27 8a3c fe4f 01be
000002d0: c6a0 a1be 382d 8fbe c23e 42be 39f9 31be
000002e0: f8ea a63b bed7 703e 43ba fbbd ba72 65bf
000002f0: 283a 4c3e 6289 6e3e ad2d f03d 4fd2 603c
00000300: 07d8 053e e139 dbbb 4956 2bbe 7c69 5e3e
00000310: 8e99 253e 1a0e 1bbc 38c7 60bb 309d 9cbb
00000320: 5340 72be be37 05be a144 2abc 697e 41bd
00000330: 5a57 40bd 44b0 103e b69e 81bf 1aa6 e13d
00000340: 1450 a6be ce0b a4bd aded 223e 8b1a 06bd
00000350: a4ff 01b5 044f 43be d8ed 82be 65e6 e13d
00000360: 4731 e43c 95a6 31bc d14d 73bd f326 2e3e
00000370: ec08 6abc c14e 893e c1b9 ab3e 2e39 c23c
00000380: aa2b c93e e53d 5fbc d1aa 16bd f7c1 9f3c
00000390: 37d3 293e 4f4a 14be 1ace 7b3e 468d afbd
000003a0: d13c ad3d 5e8d f8bd 9285 453e ef82 a73e
000003b0: d39b 553e c132 29be 1d7d 8e04 01a8 b1bd
000003c0: 92d8 bc12 546b 8234 122a 7dbf 1ff2 7a3e
000003d0: 55ef 9f3e cc6d f3bd 0d38 3a3e 4b98 36bf
000003e0: 3701 9e3d 3c9b 10be dfb2 a83d 3d0a febc
000003f0: 1091 80bd d2b6 0ebf 9e88 44bd 74bb 953e
-0.005154493 0.00017118924 0.030772824 -0.042140495 -0.026534757 -0.035604432 -0.011799965 -0.03442863
0.009568232 0.0014036802 0.008178807 -0.030616704 -0.008886051 -0.027036926 0.0015480517 0.0024099515
6.64168e-06 -0.0032920914 0.0008422077 -0.009361264 -0.0136097 -0.000990994 -0.02079985 0.007311068
-0.02185493 -0.053363085 -0.0028986929 -0.008902359 -0.0092988685 0.023578946 0.0018280206 -0.002222945
-0.012250976 0.007853371 -0.007584727 3.5567161e-06 -0.0051880195 -0.0052122064 -0.0149775855 -0.0057837125
-0.013424254 0.036862716 -0.023957023 -0.006594173 0.015329361 -0.012011477 0.0029409549 -0.010609867
0.0050716107 -0.016018063 0.016413486 -0.041130174 0.02944847 0.021072548 -0.0199597 -0.003948939
0.005462171 0.010363144 0.011573508 0.0056458786 -0.0029397185 0.009119551 -0.0051944726 -0.011133353
-0.00404466 -0.008946687 -0.059838764 0.007642191 -0.042187028 0.003032255 0.0005498036 0.00045616092
-0.029022614 -0.04676118 0.0027743008 -0.0055589047 -0.017600063 -0.009452669 0.0027359666 0.0014108496
-0.059814636 0.035054572 0.01589332 -0.0027396483 8.2973255e-09 0.032879192 -0.036214914 3.6096303e-11
-0.012125748 0.023758024 -0.03887059 -0.01302847 0.022479739 -0.007112002 0.025276156 0.027333088
0.021093706 0.0061633177 0.041738816 -0.0180871 0.009689248 -0.026663695 0.013042499 -0.06721718
-0.00999937 -0.01629045 -0.0013972924 0.02357764 0.010870487 -0.012309439 9.326255e-08 0.0019267441
1.07519725e-07 -2.6886053e-05 -0.0046119075 0.025746632 0.00994804 0.016466571 -0.000379832 -0.012349027
-0.0078090522 -0.012343534 0.0030329723 -0.02149284 -0.01322939 -0.019059872 -0.06845942 0.00023763803
0.0013266105 -0.00059026695 0.1230382 0.12030155 -0.68700176 -0.10424493 0.22254896 -0.10350633
0.074679896 -0.004312251 0.21017568 -0.10029223 0.008537221 0.096696086 -0.0047341827 0.040598113
-0.25886428 0.17748629 -0.003976074 -0.08771209 -0.44724923 0.04932635 -0.27339908 -0.009561803
-0.20844896 -0.11398023 -0.1737981 -0.14593486 -0.24576904 0.32238364 -0.006691835 -0.16650498
-0.0090864105 0.011069626 0.17025067 2.3415929e-11 0.06944397 0.049581315 -0.43778583 0.05998782
-0.1128201 0.06353522 -0.015544115 -0.01870489 0.057836786 -0.3161671 -0.0098167 -0.38614273
-0.008616714 -0.19562343 0.016864477 -0.12628171 -0.31567973 -0.27964187 -0.18969253 -0.17380227
0.0050939284 0.23519799 -0.12291386 -0.89628184 0.1994406 0.23294595 0.11727462 0.0137220165
0.13070689 -0.0066902493 -0.16732134 0.21719927 0.16171858 -0.009463811 -0.003429843 -0.0047794804
-0.2365735 -0.13009545 -0.010392339 -0.047239695 -0.046958305 0.1412974 -1.012656 0.110180095
-0.3248297 -0.08010064 0.15910979 -0.032740157 -4.842825e-07 -0.19073111 -0.25572085 0.110302724
0.027855529 -0.010842939 -0.059400383 0.17007045 -0.014284354 0.26817897 0.33540156 0.023708906
0.39291126 -0.013625597 -0.036783997 0.01950167 0.16584478 -0.14481471 0.2459034 -0.08571868
0.084588654 -0.12136339 0.19289234 0.32717082 0.20860223 -0.16523267 3.3498938e-36 -0.08674622
1.1917857e-27 2.4292478e-07 -0.9889232 0.24506424 0.31237283 -0.118861765 0.18185444 -0.7132613
0.077150755 -0.14121717 0.08237242 -0.031010741 -0.062776685 -0.5574771 -0.04798185 0.29244578

conv3.bias f4 [128]
00000000: c72c b4ba 22ff 803d 2e69 da3b 0d02 853b
00000010: 9080 40bd 0940 2bbd 2944 a5bc 5840 13bd
00000020: 338b a83d 16b4 4fbb ca1d 60bd ea64 fabc
00000030: b1b9 dc3d 92bb 953d cebe d7bd cbd7 a7bd
00000040: 709b 9dbd a145 53bd cb4b a9bd 82b8 6bbd
00000050: a75c 85b8 287a 333d e157 b63c 5c25 853b
00000060: 7ca8 a1bc a367 5c3d 1349 64bd 32fd 003e
00000070: 3e28 263d b991 9138 1577 2cba 48f1 2dbd
00000080: 9dbf 1cbd e09a 2ebd 55e0 6e3d f7b0 363e
00000090: 82f7 353b aef8 30bd 5a8f 2f3d 4523 bc3c
000000a0: 610b 003d 119c 93ba 883e 1e3c 9565 f5bc
000000b0: 70bf f7bc 4361 cbbc 1828 ac3d 4e9b 4880
000000c0: 1d5c 6abd 3d41 b8bd 88c6 893d 22ac 95bc
000000d0: 970c e73d 8aa0 cdbc a7f9 11bd e71c 9f3d
000000e0: 83c7 9bb6 d3f4 57b9 95d1 30b9 63ec 27bd
000000f0: d1c2 80bd 1799 8f3b 42fc 3cbd acea c63d
00000100: 4f01 e93d 4f8b e53c e2be ebbc 0879 2aa5
00000110: 0cd6 333d aa3d cdbb 3bda bebc 2d2d 8bb9
00000120: c52a 773d dbd2 123d 13a7 f43c b0f8 d3bd
00000130: 516d cebc 8dff 11bc 49c5 07b9 e497 8abc
00000140: 6baf c3bb 9b79 08bd 56c9 98bd ab2a da3c
00000150: 923a 3e3e cf9c 29bd 9521 8cb8 5e5f 43bd
00000160: 0f5c c33c 2210 bebb 08a3 033d 4562 da3c
00000170: 729e 81ba d1b5 b93d 2d93 4a3d 726d b8bc
00000180: 93de be3b c627 753b 2af0 3f3d 4119 02bd
00000190: 6485 53bc e87b 14bd 4cff a1bd 0863 593c
000001a0: d576 09bd c9c8 133d 727b 04bd 7444 86bd
000001b0: 13ff 9ebc 0b27 1dbc 2d18 2c3d 935c b3b2
000001c0: 9531 bb3d 5f74 e1bc 3238 3dba e92c 45bc
000001d0: aaae 8bbc 7673 0b3d abf0 683a 8f15 27b8
000001e0: 27de 073e b4b1 9ebb 0b8b a7bd 508e efbd
000001f0: 0069 c43b 9f42 cb3c eb24 07bd fe64 94bb
-0.0013746255 0.06298663 0.0066653704 0.0040590824 -0.046997607 -0.041809116 -0.020174103 -0.035950035
0.08229675 -0.0031693033 -0.05471591 -0.030565698 0.10777605 0.07311167 -0.1053444 -0.08195456
-0.07695663 -0.051580075 -0.082664095 -0.057549007 -6.359192e-05 0.04381767 0.0222587 0.0040632915
-0.01973366 0.053809773 -0.05573375 0.12596586 0.04056572 6.941282e-05 -0.0006579024 -0.04246643
-0.038268674 -0.04262817 0.05831941 0.17840944 0.0027765934 -0.04320591 0.04286132 0.022966037
0.03126085 -0.0011261721 0.009658463 -0.029955665 -0.030242652 -0.024826651 0.08406085 -6.667869e-39
-0.057216752 -0.08996818 0.0672732 -0.018270556 0.11281698 -0.025100965 -0.035638478 0.077691846
-4.642586e-06 -0.00020595202 -0.00016862743 -0.04099692 -0.06287158 0.0043822634 -0.04613901 0.09712729
0.11377203 0.02802053 -0.028777543 -1.4786157e-16 0.043905303 -0.0062634544 -0.02329742 -0.00026545805
0.060343523 0.03584562 0.029864823 -0.10350168 -0.02519861 -0.008911026 -0.00012948098 -0.01691813
-0.005971839 -0.033319097 -0.07460277 0.026631674 0.1857703 -0.04140931 -6.681975e-05 -0.04769837
0.023847608 -0.005800263 0.0321379 0.026658187 -0.0009889139 0.09067882 0.049456764 -0.022513125
0.0058248728 0.003740774 0.046859898 -0.031762365 -0.012910221 -0.03625098 -0.07910022 0.01326824
-0.033560593 0.036080156 -0.03234429 -0.06556025 -0.019408738 -0.009591828 0.042015243 -2.088044e-08
0.091403164 -0.02752131 -0.00072181516 -0.012034633 -0.01705106 0.03404566 0.000888596 -3.983598e-05
0.13268338 -0.004842961 -0.08180817 -0.11697066 0.0059939623 0.02481204 -0.032994192 -0.004528641

conv3.lin.weight f4 [128, 128]
00000000: c6ff 9a81 be3f 0280 c47e 2200 ecd9 4180
00000010: e154 1280 e5ca 139d 2099 1280 51a7 1b00
00000020: 013b 8627 f33a 3000 f54c 0eb5 33ee 2abb
00000030: 5a0a dcb9 fc95 3700 412a d4b9 ae46 0c80
00000040: 6dba afac 8bc9 1b80 f5f3 20b5 d6f5 0700
00000050: 0c91 1000 092b 3f00 48d8 1780 ca08 2eae
00000060: ce9c 1180 c6d1 2180 3004 b800 2587 1400
00000070: 4ca4 55a4 8313 89b6 d345 c488 612f 1680
00000080: f358 4880 9231 1c80 7c80 0280 a2b4 1100
00000090: f9da 1b80 c280 2780 f59b 949e 16b2 0c00
000000a0: a64c 328a 94bb 4b00 3d9e 0080 ccdb 92a9
000000b0: 3e28 85a4 adba 3fb6 03f5 0600 03a0 359b
000000c0: f32d 4aba 8cd3 08bb 5e87 0c80 fa7b 0580
000000d0: 286b 0b00 54a2 adba 81ac 24b8 4843 0d80
000000e0: 392d 60ab 9b22 0dbb d9b3 0d00 1da4 3d92
000000f0: 47d7 f3ac 26ae 07b9 9f5d 9ab2 5481 04b9
00000100: 8f35 b0b5 57d7 0180 91c2 a8a1 ecd9 3c00
00000110: ea93 11b8 5c76 1480 cd45 1b80 8760 0500
00000120: e737 24ac 6ac2 0d00 dbef 2580 6f93 1c80
00000130: e851 1780 660c 1c80 fe2b d3ad 5804 adae
00000140: 119b 93ba e9aa fb80 9fa1 8eba 694d 6aba
00000150: 544c 0a00 d54d 1080 e0eb 38bb 7a7b 08b6
00000160: a44a dfa6 913a 1ab8 eee2 04a1 db14 68a4
00000170: 4451 0600 27d9 21bb 9111 6d91 2620 a3b3
00000180: cf6a 9fba 8365 a5ba 2314 a4af e978 4980
00000190: e25a 28bb b84e 3400 db1a e3ba 2da5 1cb7
000001a0: 6d8b 0c80 9cac 4180 caf8 4a00 1374 c5ba
000001b0: 86c1 6db9 9fcd 96ba 8997 0800 3a9d 4e94
000001c0: 1e25 bcb7 309a a0b6 6d08 2380 fc85 90af
000001d0: 10d9 d6ba c10c 9fb9 9b85 1d80 dfba 02ba
000001e0: 78e8 1f92 df7f 3180 29ef 4580 bb0c 1980
000001f0: 4698 60b7 f539 1b80 0f08 3900 c797 08bb
00000200: 26d1 8b3c a845 b43d d04f acb9 25be 313d
00000210: 21b6 c43d a257 5f3d 171f 08b1 a2aa 403d
00000220: b327 bcbc f883 cf9f bbce 35bc d5bd 9a3c
00000230: bb2a 9f3d fac7 50bc c290 ecbd 14a3 d6bd
00000240: d7b3 1abc 1b8c 3280 3fff 8cbd 5ff8 bbbc
00000250: 765e 393e b23b 1e00 540e 9f3d 288e c6be
00000260: e431 843e 9250 0f3e f1b2 3380 1f5d 1d3e
00000270: 00c4 91be 3cc4 2cbe c8a4 f63c d364 d0bc
00000280: b81f 8d3e 8863 21bb 9a5f 4b3d aa9b b53d
00000290: 2128 06ba 349f 9b39 998b e9bd c558 ab3e
000002a0: a217 c3bc ea4a 30bf 56d7 323e 33c9 283e
000002b0: 9a5c c6bd c510 723f 52fa f3bd 726a 02be
000002c0: 043b 15bd c2b4 a4bd 6395 ca3d 5dc6 ce3d
000002d0: b614 2f00 0c96 e5bd 813f 133d c7f1 c8bb
000002e0: a984 c93d e673 29be e0e2 bf3d 0e1f 933e
000002f0: 3b4b 10bf fb6c 4cbe 5dc4 653d c2b2 34be
00000300: 4581 aebc b7c4 10bd d4d3 b63d 607a da3d
00000310: 5563 02be b20b 82bd 8dab f73d a555 a53d
00000320: e44d e23d d541 4bb6 b500 f03d 9ad0 b4ba
00000330: 9120 843d 659e 313e 518f 8bbf 485f 1f3e
00000340: f637 23bd e956 f23d 6ef9 2b3d 6fad 86be
00000350: 632d debd 47d2 533d 7143 ea3d 028d 9a3d
00000360: 26fb bb3d 30ad f9bd 7567 1c3e cc5d 31bd
00000370: 72ad 1c80 5fd0 3db8 cb82 813d efad f13c
00000380: 73b2 963c 8050 71be b824 253e 156e c5bd
00000390: c8ba acbb bbbb 78a5 6560 2d3d 96e3 3eba
000003a0: 98c4 e53d 265d da3e 865b 55bd 22ef 1ebe
000003b0: f251 733e dba8 dc3d 2471 d9bb e916 173e
000003c0: 9e20 963d bef4 aabd 4ed5 0831 6456 acbb
000003d0: 44d8 113e e8f0 3f3c 4a26 743d 9448 dabe
000003e0: 981b f0bd 29a4 0900 f1c0 3080 02a6 443e
000003f0: 42e8 6c3d 204b d13d 331d 823d a752 5fbe
-5.693768e-38 -2.06537e-40 3.167882e-39 -6.047483e-39 -1.683488e-39 -1.9560182e-21 -1.70797e-39 2.53958e-39
3.7256443e-15 4.429251e-39 -5.301111e-07 -0.002608192 -0.00041969382 5.104757e-39 -0.00040467273 -1.127381e-39
-4.9944966e-12 -2.551858e-39 -5.995965e-07 7.31038e-40 1.521401e-39 5.801074e-39 -2.189804e-39 -3.9570826e-11
-1.617454e-39 -3.105824e-39 1.6899233e-38 1.88519e-39 -4.6326177e-17 -4.0851896e-06 -1.18127365e-33 -2.037377e-39
-6.644065e-39 -2.589176e-39 -2.29763e-40 1.626002e-39 -2.558111e-39 -3.627774e-39 -1.5734612e-20 1.165911e-39
-8.584804e-33 6.954953e-39 -5.6765e-41 -6.521831e-14 -5.774773e-17 -2.8569877e-06 6.38907e-40 -1.5023672e-22
-0.00077125354 -0.0020878045 -1.150587e-39 -5.03652e-40 1.048631e-39 -0.001324723 -3.9261304e-05 -1.217997e-39
-7.9643545e-13 -0.002153552 1.258379e-39 -5.984017e-28 -6.930376e-12 -0.00012939479 -1.7970534e-08 -0.0001263668
-1.312861e-06 -1.69085e-40 -1.1435624e-18 5.588305e-39 -3.470845e-05 -1.879169e-39 -2.504598e-39 4.93805e-40
-2.3336834e-12 1.263604e-39 -3.483957e-39 -2.624283e-39 -2.141599e-39 -2.575842e-39 -2.400746e-11 -7.867901e-11
-0.0011261423 -2.311202e-38 -0.0010881907 -0.00089379266 9.45736e-40 -1.497289e-39 -0.0028216764 -2.0337452e-06
-1.5493965e-15 -3.6771005e-05 -4.502368e-19 -5.0324646e-17 5.80166e-40 -0.0024696083 -1.8701417e-28 -7.596127e-08
-0.0012162569 -0.0012618754 -2.9845734e-10 -6.747366e-39 -0.0025688936 4.803685e-39 -0.0017326729 -9.336783e-06
-1.152042e-39 -6.031228e-39 6.885075e-39 -0.00150645 -0.00022674174 -0.0011505372 7.89045e-40 -1.043135e-26
-2.242863e-05 -4.7863214e-06 -3.217265e-39 -2.628865e-10 -0.0016391594 -0.00030336346 -2.711158e-39 -0.00049869524
-5.0458093e-28 -4.545811e-39 -6.422444e-39 -2.300454e-39 -1.3386894e-05 -2.50035e-39 5.237514e-39 -0.002084242
0.017067503 0.088023484 -0.0003286586 0.043394227 0.09605051 0.054526933 -1.9808277e-09 0.047037728
-0.022968149 -8.7886234e-20 -0.011096652 0.018889347 0.07771822 -0.012742991 -0.11551048 -0.104803234
-0.009442291 -4.642035e-39 -0.06884622 -0.022945581 0.1810244 2.77648e-39 0.07766405 -0.38780332
0.25819314 0.13995579 -4.747802e-39 0.15367554 -0.2846985 -0.16871732 0.03010787 -0.025438702
0.27563262 -0.0024625976 0.04965172 0.08867581 -0.0005117674 0.0002968252 -0.11403579 0.33466163
-0.02381498 -0.6886431 0.17464957 0.16483001 -0.09685631 0.9455684 -0.11912979 -0.12735918
-0.036433235 -0.08042289 0.098917745 0.100964285 4.323698e-39 -0.1121026 0.035949234 -0.0061323377
0.09839756 -0.16548118 0.09369445 0.2873463 -0.5636479 -0.19963448 0.05609547 -0.17646316
-0.021301875 -0.035343852 0.08927122 0.106678724 -0.12733205 -0.06349887 0.120932676 0.08072976
0.11050013 -3.0287677e-06 0.11718885 -0.0013795078 0.06451524 0.17345579 -1.0903112 0.1556369
-0.03984829 0.11832983 0.04198592 -0.26304194 -0.108485006 0.051714208 0.11438645 0.07546426
0.09178762 -0.12191236 0.1527384 -0.043302342 -2.633614e-39 -4.5255172e-05 0.06323775 0.029501883
0.018395638 -0.23565865 0.16127288 -0.09640137 -0.0052712895 -2.1574177e-16 0.042328257 -0.0007281838
0.11219138 0.42649192 -0.052089237 -0.1552091 0.23761728 0.10774394 -0.006635802 0.14754833
0.0733044 -0.08347462 1.9911854e-09 -0.005259322 0.14242655 0.011715151 0.059606828 -0.42633498
-0.11724013 8.85409e-40 -4.477318e-39 0.19203952 0.057838686 0.10219407 0.063532256 -0.21808873

conv4.bias f4 [128]
00000000: b8cd 2d3e 5928 2fbd a95c d0bd f114 e9bd
00000010: 3609 55bb 2c59 28be c2bd 483b 5b86 0b3d
00000020: 820a ed3c 18b7 183e 7e46 a83d 93a7 22bd
00000030: c276 91b9 3068 2dbd 0c9b a3bd 4207 933d
00000040: 7077 c03d d555 a9bb 55d5 13bd 0a51 32b6
00000050: 89f5 99bd 1fdd 7e3d 3db6 83bd b0c9 0a3d
00000060: 0ff4 54bc c0bb a13c 1fcb 1a3d bbfd 05be
00000070: 06e3 503d cbad 8cbe 4b55 8c3d 1886 1ebd
00000080: 8729 2a3e b493 bebb 0acb 33be 4d40 803d
00000090: ae71 233d 9325 e0bc 38f7 31be 6d24 8d3d
000000a0: 64da b3bd 2b3b a23d ba97 c2b7 32d1 3c3e
000000b0: 73d6 d63d 506f 0cbe 938f 8fbd 98c7 ffbd
000000c0: 4783 06be 344f 26bd 3c43 3bbe d37a 9eba
000000d0: 1061 693d e33a 03be 8dee e6bc bf50 463d
000000e0: 03ed 6a3d f3e1 4b3d 0a31 11be 520b c33d
000000f0: 11fa e33c fc5b 0c3d e252 f8bc 9eeb cdbd
00000100: 4c3e af3d dba0 c93c ad41 e2bc b7d2 c03d
00000110: f4dd 1fbe 45db be3d f71b 21bb 0533 933d
00000120: 3aa4 0dbe 9676 23be 8b7d 34be f56a 2dbe
00000130: cfef d03c 2ad4 95bd f9ff f0bd 8410 2d3e
00000140: 863d 80bd 2419 8ebd ac0d 973d 7e45 7eba
00000150: ef30 e8bd 58c6 c03d fe9b 9a3d 9a25 28a4
00000160: 7d79 1c3d 06b9 433e 835e 38bd 2524 6dbe
00000170: cb4d 49be 08df 923d ea26 de3b 043d 1cbd
00000180: 0f68 28ba 16c0 b83d 3556 f93c fac5 9dba
00000190: 7ff1 2ebc d0cb 12bd 3a0d 1f3d 22ad ee3c
000001a0: 6370 aebc 21b3 003b 88e6 af3d 530d edbc
000001b0: dd40 07bd 20d2 02be 000f 683d a22e 8a3c
000001c0: 077e bd3c 88ce d03d 9802 b83c 5651 5cbe
000001d0: edbd 683c 01a0 2d3d 5f9a 2dbd b707 943d
000001e0: d530 84bd 3dab 553c 9807 663d 0f32 3e3d
000001f0: 58c4 b0bd 1cac d33d 0018 8b3d 30f0 5c3d
0.16973007 -0.042763088 -0.101739235 -0.113809474 -0.003250671 -0.16440266 0.0030630683 0.03406368
0.028935675 0.14913595 0.0821657 -0.039710592 -0.00027745037 -0.04233569 -0.07988557 0.07179119
0.09397781 -0.0051677027 -0.03609212 -2.6571238e-06 -0.07517535 0.062222596 -0.064312436 0.03388375
-0.012997641 0.019742846 0.037791368 -0.13085072 0.050997756 -0.27476344 0.06852206 -0.0387021
0.16617404 -0.0058159474 -0.17557922 0.062622644 0.039903335 -0.027361667 -0.17379463 0.06891713
-0.08781889 0.07921442 -2.3197255e-05 0.18439177 0.10490122 -0.13714337 -0.070098065 -0.12489241
-0.13136016 -0.040602878 -0.18287367 -0.0012091048 0.05697733 -0.12815432 -0.028189922 0.04841685
0.05735494 0.04977603 -0.14178863 0.095236436 0.027829202 0.03426741 -0.03031296 -0.10054706
0.08556804 0.024612835 -0.027619207 0.09415191 -0.15612012 0.09319166 -0.0024583319 0.071874656
-0.13832179 -0.15963206 -0.17626016 -0.16935332 0.025504975 -0.07315858 -0.11767573 0.16900831
-0.06261735 -0.06938389 0.073756546 -0.0009699686 -0.11337458 0.09412831 0.075492844 -3.6461043e-17
0.038201798 0.1911355 -0.04501201 -0.2315832 -0.19658582 0.07171446 0.0067795413 -0.038144127
-0.00064241973 0.090210125 0.030436615 -0.0012037151 -0.010677694 -0.035838902 0.038830973 0.02913529
-0.021293825 0.001963802 0.08588892 -0.028937018 -0.033020843 -0.12775469 0.05665493 0.01686794
0.023131384 0.10195643 0.022462174 -0.21515402 0.014205438 0.04238892 -0.042383548 0.07228034
-0.064546265 0.013041315 0.056159586 0.04643446 -0.086311996 0.10335562 0.06791687 0.05394

conv4.lin.weight f4 [128, 128]
00000000: 84d4 bd35 955d 03bf 9572 58bf 329f 3239
00000010: 96c5 2d3d 55f5 1c3b e293 b4bb cafe 36be
00000020: ba1f 2fbf 5650 be3a e489 293d f5ef 1cb9
00000030: e03e 3dbf 15cc d43d 2194 8a3d 5fc9 863d
00000040: 35d9 2b3d 042e 1fbb 2eb1 bf3d 3a67 403d
00000050: fb29 3880 de17 dbbb 98dc b43f f414 deba
00000060: 016b e53d eb06 503d 78ea 54bd 7e8f 313e
00000070: 0337 023d e836 c8bd f428 0d00 fd8d a73d
00000080: c7c6 1fbe ea35 763c 32de fabe b555 913d
00000090: cbdc 82bf d636 2abd 1ce3 c43d 3384 a13d
000000a0: f0c5 3cbb 2329 a53c fcc6 04be ac5d 61bd
000000b0: dc4b e1bb 5c31 aa39 2de4 f7bd 5887 0800
000000c0: ad61 67be a44c c73d 441e 2dbf dc71 3b3c
000000d0: a053 2d3d 2c53 1dbc 89f8 dabd b346 0b3e
000000e0: d1aa 0680 da8b 6135 e736 0f80 a6e2 183c
000000f0: 01d2 fd3c 757d ed3c c714 4cbd 2b26 c13c
00000100: 1b22 57bd 786e 69be e66b b239 d8cf 5233
00000110: e3b2 da3c 1eaf a89f 15c8 efbd 6715 0e00
00000120: c28c c03b d09e 843e fb74 62b8 1a90 f1bd
00000130: 4be5 8db6 369d 9211 845b b42a b8b5 69bc
00000140: dfa1 8098 091a 5cb9 8d27 9f3d 470f 3bbc
00000150: 79cd c03e 0a94 69bd 93e9 1500 ac69 05c0
00000160: e2d2 9ab5 54ba 963e 4208 c13d 792a 27bd
00000170: 77b0 80a8 c05d f1be 7d2d ac3c 6b13 02b5
00000180: cc4c 07bd 633c 1e3c d40c 363e 8fb0 a9be
00000190: 8d3e d0a1 2a1a 2fbb 04ae b53e ffdc 3b3e
000001a0: cb26 12be 037b 7b3d 8d18 de3e 5a8e 3ebe
000001b0: a20a 143e 293b 2d3c 335c a93c 0fe0 0300
000001c0: dae4 0bbb 69ef 80bb f359 0380 38bf 53bc
000001d0: 9939 0580 ceaf 023f fd90 80bd 8459 1200
000001e0: 8f1b 3d3e ed19 aa3b 5ff4 48bd 1e92 1dbe
000001f0: a0ea 903b 3575 6e3d 9704 e6bd cbe2 b93c
00000200: c7c8 1d80 378f d4bc 2ced 1fba 43e1 1425
00000210: 1e1e eea8 f7d2 37ba 6212 b638 0026 6bbd
00000220: 6b24 1f38 bec1 2380 f0d6 b5bc 7363 c7b7
00000230: 80b8 46b6 b436 8fbc 3271 02bd 1218 0cbd
00000240: 189a 09bd b4d4 d0b9 945f 25bd f5cd 4ebc
00000250: 8a68 4580 8de9 8aad d865 d5ac 5b28 53ae
00000260: c8a7 57bd b64d 4fbc f42b 9bbc 2b7d 4bbc
00000270: 97e5 20bd 24a3 85bd 4a70 1700 c5d7 88bc
00000280: 96f1 3abd 84ac 28a5 f6af 65b4 33ae 22bd
00000290: 3295 79bc 153c 1380 5c48 bbbb 6d83 06bd
000002a0: 01b4 53bd d57c 78b5 211b 34bd 7733 ceb2
000002b0: 9b08 4ebd 2ca9 7401 9442 6ebc e0ed 4680
000002c0: 1199 0ebd 53a8 e0bc fbea c4ba 2f8b 28ba
000002d0: 6175 cebc 4853 3280 d4d6 d4ba f7dd dabc
000002e0: f784 0d00 ae6e 1280 6a31 0e80 2377 6bbd
000002f0: 896f cfbd bbd4 94aa e2e3 1780 8831 d5bb
00000300: 1c09 15bd 037d c3bc 378a 0900 667c 2680
00000310: cba6 63bd 2f87 1fad fee0 f9bc 83e0 1980
00000320: f6a6 48b1 5a89 febc 9015 14b2 cdac 6dbd
00000330: 6633 0d00 ebcd a59a 06ea c1b1 c383 b2bb
00000340: 66a1 fc94 5a76 2fa2 05f3 1dbb 0323 1000
00000350: 8f6e aa3c 9633 f0bc d4b9 0c00 a5e2 14b8
00000360: 6d5f 75ac fb34 0cbd 70c4 69bc d699 b036
00000370: 1979 f39d f968 d938 3705 21bb c535 1cb7
00000380: eb7a b5b9 587b 0823 1da4 36bd 1685 8bbc
00000390: 383f 20af 5a25 9e35 14f4 c6bc 9391 1b3e
000003a0: c954 64bd 7f80 2ebd 5324 bcbb 88db 21bd
000003b0: 5533 e0b9 40fd d1bb 2d38 8535 99cb 2280
000003c0: d1ca 76b3 763d 40bd c063 0080 b9c2 093c
000003d0: f00e 3480 8b3c 98bc ab80 d3b9 3392 1a00
000003e0: eb62 5cba 2f65 b59c 1dda 88bc 629c 22bd
000003f0: 0d8c 1c00 7ace f6bc 3667 e5bc 0c5a 97bc
1.4143448e-06 -0.5131467 -0.8454984 0.00017034708 0.04242476 0.002394994 -0.005510793 -0.17870632
-0.68407786 0.0014519792 0.04139127 -0.0001496671 -0.73924065 0.10390488 0.067665346 0.06581377
0.04195519 -0.0024288902 0.09359966 0.046973445 -5.157848e-39 -0.006686195 1.412982 -0.00169435
0.1120205 0.050787847 -0.05198142 0.17339894 0.031790745 -0.097760975 1.208553e-39 0.08181379
-0.15603171 0.015027503 -0.48997647 0.070964254 -1.0223631 -0.041556202 0.0961363 0.07886543
-0.0028804503 0.020161217 -0.12966532 -0.055020973 -0.006875498 0.00032461702 -0.12104068 7.83236e-40
-0.22595854 0.09731415 -0.67624307 0.01144072 0.04231608 -0.009602349 -0.106919356 0.13601188
-6.1229e-40 8.402254e-07 -1.397228e-39 0.009331381 0.030983927 0.028990487 -0.049824502 0.02357777
-0.05252276 -0.22796047 0.00034031196 4.9083468e-08 0.026696628 -7.1440475e-20 -0.117080845 1.293375e-39
0.0058761546 0.25902414 -5.3991545e-05 -0.11795063 -4.2288207e-06 2.3131627e-28 3.2037925e-13 -0.0142645165
-3.3250673e-24 -0.00020990534 0.077712156 -0.011417217 0.37656763 -0.057025947 2.012336e-39 -2.0845747
-1.1535269e-06 0.29439032 0.09425403 -0.04081199 -1.4287384e-14 -0.47141838 0.021017784 -4.845703e-07
-0.033032224 0.009657952 0.17778331 -0.33142516 -1.4111185e-18 -0.0026718476 0.35484326 0.18346022
-0.14272611 0.06139661 0.43378106 -0.1860899 0.14457181 0.010573187 0.020673847 3.55884e-40
-0.0021346123 -0.00393479 -3.07774e-40 -0.012924008 -4.7984e-40 0.51049507 -0.06277654 1.685151e-39
0.18467544 0.005191079 -0.049061175 -0.1538777 0.0044225007 0.058217246 -0.11231344 0.022691151
-2.735255e-39 -0.025947196 -0.000610071 1.2913275e-16 -2.643637e-14 -0.0007012332 8.68186e-05 -0.057409286
3.794247e-05 -3.283744e-39 -0.022197217 -2.3768958e-05 -2.9611692e-06 -0.01748214 -0.031846233 -0.034202643
-0.03359422 -0.00039831328 -0.040374354 -0.012622346 -6.374151e-39 -1.5792501e-11 -6.065131e-12 -4.801169e-11
-0.052650243 -0.012652805 -0.018941857 -0.012419979 -0.039281454 -0.06525257 2.152498e-39 -0.01670445
-0.04564055 -1.4630128e-16 -2.1391301e-07 -0.03971691 -0.015233325 -1.766428e-39 -0.005715413 -0.03284018
-0.051685337 -9.2568854e-07 -0.043971185 -2.400496e-08 -0.050301176 4.4937097e-38 -0.014542241 -6.513818e-39
-0.034813944 -0.027424013 -0.0015023643 -0.00064294314 -0.025202455 -4.62165e-39 -0.001623834 -0.02671717
1.24156e-39 -1.692743e-39 -1.303423e-39 -0.057486665 -0.101286955 -2.6437693e-13 -2.193965e-39 -0.0065061487
-0.03638564 -0.023863321 8.76102e-40 -3.534375e-39 -0.055578988 -9.06812e-12 -0.030502792 -2.376427e-39
-2.9198737e-09 -0.031071354 -8.619637e-09 -0.058026124 1.2123e-39 -6.857508e-23 -5.6436447e-09 -0.005447836
-2.5509158e-26 -2.3779577e-18 -0.002410115 1.481928e-39 0.020804672 -0.029321473 1.168689e-39 -3.549703e-05
-3.4869566e-12 -0.034230214 -0.014268026 5.2631176e-06 -6.4446776e-21 0.00010366919 -0.0024569759 -9.310844e-06
-0.0003461459 7.398694e-18 -0.044590104 -0.017031234 -1.4574375e-10 1.1782788e-06 -0.024286307 0.15192251
-0.05574492 -0.042603012 -0.005741635 -0.039516002 -0.00042762855 -0.0064083636 9.925621e-07 -3.195444e-39
-5.74608e-08 -0.046933614 -3.5784e-41 0.008408242 -4.780804e-39 -0.018583557 -0.0004034092 2.440169e-39
-0.0008407074 -1.2003731e-21 -0.016705567 -0.03969992 2.621635e-39 -0.030127753 -0.028003316 -0.018475555

conv5.bias f4 [128]
00000000: 12fb f83d 5811 f4bb c378 1ebc 3122 d53c
00000010: 6dc3 ff3d 8898 ffbc 9abf dbbd d61a 323e
00000020: 9d23 63be 70a0 05bc adad 05bc afc3 9abb
00000030: f6fc f58a 33a5 a0bd 3886 9fbb 55bb 10b0
00000040: a521 8cbc dc3b 85bd 6042 40bc 91b0 4fbc
00000050: 8161 3abc be9a 083d d0eb 093d d366 8f3d
00000060: 767e 85bc 8459 d53c 6c51 a2bd bb9f 4ebc
00000070: d7c6 07ac 64f5 a93e 7472 3f3e b4a0 15b2
00000080: 0a3a ca3c b673 243e 0377 e8bd dc85 d63d
00000090: d90f 85bd 2864 1f3d 63f9 933e 5206 1bbd
000000a0: a99b f2bd 58bc da3c 811b 24be 34d9 2b80
000000b0: 3cd3 243e 1d9b b93d d8ca f9bc 5da3 15bc
000000c0: 7fa8 efbb 77eb 1f3e 5c90 a43e 620e 1bbd
000000d0: 326b cab9 0ec1 21bb d449 bcbd 617f d5bc
000000e0: cc4b 9eb0 50a9 aebb eb07 48b5 cbcb 653c
000000f0: 5e62 863d b843 ff3d 4ba0 7abd 7044 be3d
00000100: 01ec f1bc 3c3e 19bc d9aa 2cbe 93d4 b93b
00000110: 80b4 8a3e c662 39bd 1ff6 0c3e 8d43 29be
00000120: d6a8 21be 5700 32bc 3461 c53c faec c0bc
00000130: 0f8e 24bb 57a8 143e 0a26 1c3e 5f54 00bf
00000140: ca07 923d 083f 92bd 18fc 07bd 05f3 3a3f
00000150: 3e6b c6bc b013 1db8 c7a4 1cbd 74c8 28be
00000160: 58c5 bf3e 8150 cd3d 68db 12bd 700c a7bc
00000170: ad45 5dbd 7825 ea3d 14f5 943d 4e3a 99bd
00000180: 3a59 9b3d a61c 593d 40f7 883d 3517 353e
00000190: 8bdf 27bc bd8f e23d 9120 e9bd ded8 3abc
000001a0: 198a da3d c640 2abd e474 eaba b145 a7bd
000001b0: b480 53bc a15b 5dbd 9a78 d7bd 7a03 aa3e
000001c0: 66ce 7db0 a7cd 91be a964 0abc 105d 173e
000001d0: 1fb4 0f3e 5cf4 27bc 87dc 56be e1a5 09bc
000001e0: 0b6f 353e b6d0 533e e453 e8bd 27c3 35bd
000001f0: 40b3 b9bc c03a 7bbd 80db b8bd 3aef bbbd
0.12157263 -0.0074483566 -0.0096723465 0.02601728 0.124884464 -0.031200662 -0.107299045 0.1739305
-0.22181554 -0.008155927 -0.008159083 -0.0047230343 -2.3687795e-32 -0.07844009 -0.004868295 -5.265311e-10
-0.017105887 -0.06505558 -0.011734575 -0.012676374 -0.011375786 0.0333507 0.033672154 0.07002034
-0.016295653 0.026043661 -0.07925686 -0.012611325 -1.9295032e-12 0.3319503 0.18696004 -8.709481e-09
0.024685878 0.16059765 -0.11350825 0.104747504 -0.06497163 0.038913876 0.28901204 -0.037847824
-0.11846096 0.026701137 -0.16026117 -4.026844e-39 0.16096205 0.09062789 -0.030492231 -0.009133187
-0.0073137875 0.15617166 0.32141387 -0.037855513 -0.0003860831 -0.002468172 -0.09193769 -0.026061716
-1.1517556e-09 -0.005330242 -7.451733e-07 0.014025639 0.06561731 0.12464088 -0.061188024 0.09290397
-0.02953148 -0.009353217 -0.16862048 0.005671093 0.27090836 -0.045260213 0.13765763 -0.16529675
-0.15787062 -0.010864339 0.024094202 -0.0235505 -0.0025109088 0.14517342 0.15248886 -0.5012874
0.07130392 -0.071409285 -0.0331994 0.7302707 -0.024221059 -3.7450052e-05 -0.03824308 -0.16482717
0.3745525 0.100251205 -0.035853773 -0.020391673 -0.054021526 0.11432928 0.072733074 -0.07481824
0.07585378 0.053005837 0.06687784 0.17684634 -0.010246168 0.11062572 -0.11383165 -0.011404244
0.10670871 -0.04156568 -0.0017887619 -0.081675895 -0.012909103 -0.054042462 -0.1052105 0.33205777
-9.2334174e-10 -0.28477213 -0.008446851 0.14781594 0.14033554 -0.010251131 -0.20982562 -0.008401365
0.17718141 0.20685086 -0.11344126 -0.044375565 -0.02266848 -0.061335325 -0.09026241 -0.09176488

conv5.lin.weight f4 [128, 128]
00000000: 45f7 9a3d e448 c0b5 85de 8fbc f807 59bf
00000010: 0845 2580 1681 53be a000 bebe 31ec 423e
00000020: c1bc 9b3e 11b4 91be a7a9 683e 8d1e c13c
00000030: 7861 1580 71a0 deb5 a93c 03be 3246 a03d
00000040: ff04 223c 37b6 81b0 6f84 3abf b2e5 2100
00000050: 3fb2 bebd f436 383e 5580 423e 7006 20be
00000060: d283 0600 a711 88bc bc7b d53d c4fd 6abe
00000070: 3d0c 80bc f318 54be ee0e 0f3e 3fee e9b3
00000080: e0ff dbbd d3b9 1634 a622 063f cb07 8a3e
00000090: d026 b3bd b418 5aa7 79a8 e63e 56b4 37be
000000a0: 78d9 b43d a4a9 823e a691 2f80 44f5 2b3d
000000b0: a775 7e3e e189 363e 4a87 9a3d 2b21 81bf
000000c0: d924 463f 03f8 88bb 1a50 20be 5548 53b6
000000d0: 83b7 a6bd 0674 0cbf 8b32 a23c 355b c73e
000000e0: 53e2 b13d 8aa7 8abd 59c4 b1bd 0a59 923e
000000f0: 4f1e 3ebe 2275 b73d 21ea b2bc df93 4fbf
00000100: 220a 953e 9a5d 873e 6feb 363e 91e7 8e3d
00000110: 35e1 09bf cf6b 00bd 1734 bbbe 34b5 753e
00000120: b2f3 023f f370 8a3d 2aa9 b3be e05e 8d3e
00000130: 129d aa3e 839a a6be d4da 06be 1b2c 0a3d
00000140: b89f ff3e b813 f63e a709 883e 91f6 19bd
00000150: 2e5e 2c3e 151c d2be 7bca 2c3e 75f0 2180
00000160: 48fc 813d a5ce bc3e a2de bd3e 2a55 293f
00000170: b5ee 53bf 5299 083e 99f1 41b9 dadf f73d
00000180: 1a87 0700 1e23 a0bd 515b 8fbd 6946 22bd
00000190: 125e d024 a1ed f8be 643f a0be 6100 e73a
000001a0: d62a 2322 784f 90bd f9a2 be3e eb54 b03d
000001b0: 7f7a ccb6 e321 4c3e af77 4cbe ce84 6ebe
000001c0: bcf4 a1bb 7ed2 d43d 9ff2 87be 7a6f a43d
000001d0: 620a 3c3e 340d 703e eb0e 113d e2ff f53d
000001e0: 31db c2bd 7143 2fbe 673c 05bd 516b 403d
000001f0: 5a64 7c3e 1a6a 13be 1ac6 d2bd 5ee4 7a3e
00000200: ff40 eebb 8d69 cd01 d623 aab0 eac5 adae
00000210: 52b6 2b80 5957 fbab 6a5d 3400 9af3 7b3b
00000220: b7fb 4eba b8db 0cbc d514 2f81 491b 1d80
00000230: 2140 4900 fcb5 3000 741f 1cba a6bf 0d80
00000240: 2982 2680 37a6 1180 66d0 809a 969d 2080
00000250: 4087 45b0 de1f 0e80 95d3 b3bb 9a42 0800
00000260: 76b0 0280 7a86 1400 3b3c b6bb 6c6a 63b8
00000270: 66eb 1080 4d45 22b2 7926 1980 8551 1d00
00000280: 34b5 96ae 0a7c 4300 9d64 cca7 70eb 1b9d
00000290: efb9 6dba 3208 4c82 ee55 06b2 954d 0b8d
000002a0: 15aa 84b2 b66f 2500 08fa 3001 b736 41bc
000002b0: 5286 0c00 9a57 86b5 3f55 c3aa b723 ebae
000002c0: d54b 74b6 f8d8 1f80 3973 e8bb fb0b 1300
000002d0: 7554 e3ab ebc1 3280 e636 9901 7bc0 e4b9
000002e0: ceee cf3c b9c0 b387 fe9e b73b 755f 0100
000002f0: f596 f191 cbd6 27bb f298 2880 95c5 2836
00000300: a67b 0c80 dd1d 0680 e97a 21bb 3f12 0280
00000310: d339 1000 f8bb 1e80 3038 3abc 8c57 1500
00000320: 9cc1 c6a5 c267 1bbc 49f5 7bb9 0e3b 9dbb
00000330: 10f7 5dbb 093e 6fb6 c609 64b2 7ee2 09b7
00000340: a23e 0b31 4d27 ea30 229e 0095 8200 1900
00000350: a1cf 5ab7 cdd9 bcb2 4703 0c31 51d9 1100
00000360: 2b1b b7bc a59b 9eb6 d684 2b1b 427a 39ba
00000370: 5c86 26b3 cf44 0080 021c 0d80 8289 67bc
00000380: 29a4 2700 11ea 0a80 c424 6d82 6c65 e0a7
00000390: 7227 1e80 4e81 d18f 235f 2700 613c a4b3
000003a0: 826d 0000 931f 84bc 68c1 1b80 eb4c 3780
000003b0: 90f6 0380 8fb9 76b9 8104 4d3c a2ee 2abc
000003c0: 943f 273c 562f b1bc 8bb1 80aa 1708 26b3
000003d0: ee66 ddbb f82c 1b80 fb87 c031 29cd 0200
000003e0: c61e 5f25 4cea 5ab7 ff23 2200 d9a3 1900
000003f0: f6ae 49bc 4e6e 1abc 9166 1200 104f 1f00
0.07566694 -1.4326329e-06 -0.01756216 -0.84777784 -3.422677e-39 -0.20654711 -0.37109852 0.19035412
0.30417445 -0.28457692 0.22720967 0.023574138 -1.96351e-39 -1.6586984e-06 -0.12816109 0.07825889
0.0098888865 -9.437774e-10 -0.7285833 3.11297e-39 -0.093113415 0.17989713 0.18994267 -0.15627456
5.98301e-40 -0.01660998 0.10423991 -0.22948366 -0.015630836 -0.20712642 0.13970539 -1.0893245e-07
-0.10742164 1.4037441e-07 0.5239662 0.2695907 -0.08747637 -3.026697e-15 0.4505041 -0.17939886
0.08830541 0.2552005 -4.368517e-39 0.04198195 0.24849568 0.17826034 0.075453356 -1.0088247
0.77399975 -0.004179956 -0.15655556 -3.1483553e-06 -0.08140471 -0.5486454 0.019799491 0.38936773
0.08685746 -0.06770237 -0.086800285 0.28583556 -0.1856625 0.08957888 -0.021840157 -0.8108501
0.29109293 0.264386 0.17863248 0.069777615 -0.53859264 -0.031352814 -0.3656318 0.23994905
0.511531 0.067598246 -0.3509 0.27611446 0.3332296 -0.32539758 -0.13169414 0.03373347
0.49926543 0.4806192 0.26569864 -0.03758866 0.16832802 -0.4103705 0.16874115 -3.116831e-39
0.06346947 0.36876407 0.37083918 0.66145575 -0.82786113 0.13339737 -0.00018495916 0.12103243
6.91314e-40 -0.07819198 -0.06999839 -0.03961793 9.036498e-17 -0.48618796 -0.31298363 0.0017624014
2.2113296e-18 -0.070464075 0.37233713 0.08609947 -6.093934e-06 0.19934802 -0.1996753 -0.23292848
-0.0049425047 0.10391711 -0.26552293 0.08029075 0.18363336 0.23442537 0.035414618 0.120116964
-0.09514464 -0.1711557 -0.032528307 0.046977345 0.24647656 -0.14395943 -0.10291691 0.24501178
-0.0072709317 7.5456565e-38 -1.2379313e-09 -7.902286e-11 -4.01433e-39 -1.7858867e-12 4.808956e-39 0.0038444758
-0.0007895785 -0.008597307 -3.215737e-38 -2.673017e-39 6.726996e-39 4.473388e-39 -0.00059556146 -1.262612e-39
-3.536442e-39 -1.62083e-39 -5.3276245e-23 -2.995267e-39 -7.1860384e-10 -1.297129e-39 -0.005487869 7.58576e-40
-2.46973e-40 1.884951e-39 -0.0055613793 -5.422013e-05 -1.553813e-39 -9.445398e-09 -2.309689e-39 2.692473e-39
-6.8533984e-11 6.197475e-39 -5.673046e-15 -2.0635798e-21 -0.0009068539 -1.4989905e-37 -7.819365e-09 -4.292607e-31
-1.5444167e-08 3.437988e-39 3.2505483e-38 -0.01179283 1.150211e-39 -1.0009273e-06 -3.469811e-13 -1.0692907e-10
-3.6402973e-06 -2.924734e-39 -0.0070938137 1.749172e-39 -1.6152762e-12 -4.66134e-39 5.62821e-38 -0.00043630958
0.025382426 -2.7046199e-34 0.00560367 1.26079e-40 -3.811613e-28 -0.0025610204 -3.728286e-39 2.5148959e-06
-1.146383e-39 -5.61726e-40 -0.002463991 -1.90216e-40 1.490111e-39 -2.822495e-39 -0.011365935 1.959951e-39
-3.447872e-16 -0.009485187 -0.00024028601 -0.0047982996 -0.0033869185 -3.5649884e-06 -1.3273569e-08 -8.218571e-06
2.0262765e-09 1.7036911e-09 -2.597414e-26 2.29607e-39 -1.3042155e-05 -2.1985125e-08 2.0374544e-09 1.639162e-39
-0.022351822 -4.7268863e-06 1.418771e-22 -0.0007075408 -3.8772086e-08 -2.4684e-41 -1.203909e-39 -0.0141319055
3.640474e-39 -1.002322e-39 -1.7422561e-37 -6.228245e-15 -2.769215e-39 -2.0658798e-29 3.615713e-39 -7.647828e-08
3.9284e-41 -0.016128337 -2.54894e-39 -5.078545e-39 -3.63956e-40 -0.00023529514 0.012513281 -0.010432871
0.010208029 -0.021629017 -2.2860563e-13 -3.8657245e-08 -0.006756655 -2.49569e-39 5.6033946e-09 2.57269e-40
1.9352593e-16 -1.3048364e-05 3.13532e-39 2.354665e-39 -0.01230978 -0.009425713 1.689833e-39 2.875263e-39
